data.pth (torch, 5695 bytes, 6 tensors)

l1.weight f4 [8, 57]
0	0xbe4bb91f	-0.19894837
1	0xbe91d68a	-0.28483993
2	0x3f243159	0.641378
3	0xbed4614b	-0.4148048
4	0xbeb17611	-0.3466039
5	0x3ee69133	0.45032653
6	0x3ec18b78	0.3780172
7	0xbee1eae1	-0.4412451
8	0x3f8ae961	1.0852472
9	0x3f361405	0.711243
10	0xbe7c3580	-0.24629784
11	0x3f0bcebf	0.54612345
12	0xbe710534	-0.23537141
13	0x3f0cdfaa	0.55028784
14	0x3f8198a1	1.0124704
15	0x3f4dfdf0	0.804656
16	0x3eb8ec15	0.36117616
17	0xbec59c5d	-0.38595858
18	0xbfaf6e67	-1.3705567
19	0x3ef1e6f2	0.4724651
20	0xbf0fbf09	-0.5615087
21	0xbf215da1	-0.6303349
22	0xbf216a2b	-0.63052624
23	0xbefeb536	-0.49747628
24	0x3f1eba32	0.6200286
25	0x3ee9e8a6	0.4568531
26	0x3e6abb68	0.22923052
27	0x3f302734	0.6880982
28	0xbe79749a	-0.24360886
29	0xbea32d1f	-0.31870362
30	0x3f261b8e	0.64885795
31	0x3f0c7123	0.5486013
32	0x3f5d7d00	0.8651886
33	0x3ee08305	0.4384996
34	0x3f079bf5	0.52972347
35	0xbdf67efe	-0.120359406
36	0xbe709c90	-0.23497224
37	0x3dfaeabb	0.122518025
38	0x3f1b41fb	0.60647553
39	0xbf53d352	-0.82744324
40	0x3eb45430	0.3522048
41	0x3eca6a7e	0.39534372
42	0xbe26b761	-0.16280891
43	0xbe3d2525	-0.18471201
44	0x3f7f5357	0.9973654
45	0xbf1a8c55	-0.6037038
46	0x3e4a94b5	0.1978329
47	0x3efe88cf	0.49713752
48	0x3efbc34f	0.49172446
49	0x3ef20f74	0.47277415
50	0x3ec541ea	0.3852685
51	0xbeab27aa	-0.334287
52	0x3eddb10f	0.43299147
53	0xbe62218d	-0.22083111
54	0x3f0cecfb	0.55049103
55	0x3f51baf5	0.819259
56	0x3eb99234	0.36244357
57	0xbdf6822b	-0.12036546
58	0xbd9575a8	-0.07297832
59	0x3dc15ca3	0.09441497
60	0x3e47e1de	0.19519755
61	0x3f303bee	0.68841445
62	0x3e36a957	0.17838036
63	0x3ef64b94	0.48104537
64	0x3f3ee1d0	0.7456331
65	0xbdcabcec	-0.09899315
66	0xbeff1e23	-0.4982768
67	0xbe9cc377	-0.30617878
68	0xbcc1c259	-0.023652242
69	0x3eb129be	0.3460216
70	0x3ee0d7c2	0.4391461
71	0x3dfebcc4	0.12438348
72	0xbee35401	-0.44400027
73	0xbe4999e4	-0.19687611
74	0x3f09139a	0.53545535
75	0xbb30b200	-0.0026961565
76	0x3eb23d07	0.34812185
77	0x3f17a2b9	0.5923267
78	0x3f248d17	0.64277786
79	0x3ef45aff	0.47725675
80	0x3e95aca0	0.29233265
81	0x3e1f2150	0.15540051
82	0xbe32e930	-0.17471766
83	0x3f26d8e8	0.6517472
84	0x3e29b972	0.16574648
85	0x3f59c929	0.8507257
86	0x3f554951	0.83314997
87	0x3ef72ebd	0.48277846
88	0xbecbe4cc	-0.39822996
89	0xbf198ba1	-0.5997868
90	0x3e18e3ad	0.14930601
91	0xbed8292a	-0.42218906
92	0x3f0bdc0e	0.5463265
93	0xbe43fd87	-0.19139682
94	0x3f929ce9	1.1454135
95	0x3d01b87c	0.03167008
96	0xbd3b219e	-0.045686357
97	0x3f5bc83c	0.8585241
98	0x3ec90912	0.39264733
99	0xbd685e8f	-0.056730803
100	0xbe0835a5	-0.13301714
101	0xbd616d90	-0.055036128
102	0x3f959c37	1.1688298
103	0x3dad92fd	0.084753014
104	0xbe21aa95	-0.15787728
105	0x3f6fac0c	0.936219
106	0x3f248ce3	0.64277476
107	0x3f10c5b3	0.56551665
108	0x3e37ca0c	0.17948169
109	0x3d4903e0	0.04907596
110	0x3f60da3d	0.87833005
111	0xbe8a47af	-0.27007815
112	0x3eb72a85	0.35774627
113	0x3eb03e48	0.34422517
114	0x3f76a8eb	0.963515
115	0x3f86590f	1.0495929
116	0x3ca82869	0.020527082
117	0x3dca0377	0.09863942
118	0x3efe8055	0.49707285
119	0x3e4920ec	0.19641465
120	0xbeb0b7b9	-0.3451517
121	0x3f30ac85	0.69013244
122	0xbefdc01b	-0.49560627
123	0xbf3b96eb	-0.7327716
124	0x3f239d67	0.6391205
125	0x3df7d09b	0.12100335
126	0x3d5b6a51	0.053568188
127	0xbe4b5aec	-0.19858903
128	0xbf542093	-0.82862204
129	0xbf62c16e	-0.885764
130	0x3e853422	0.26016337
131	0x3e809b4f	0.2511849
132	0x3f9fc10a	1.2480786
133	0x3ef68a7c	0.4815253
134	0x3e08db0d	0.13364811
135	0x3e3a507a	0.18194762
136	0x3ceac459	0.028658079
137	0x3ea63b4d	0.32467118
138	0x3e20f5bf	0.15718745
139	0xbeee82dd	-0.46584216
140	0xbd0e80c1	-0.034790758
141	0xbc98e81b	-0.018665364
142	0x3f59e90d	0.8512123
143	0x3f49882a	0.78723395
144	0xbf07e2d1	-0.5308047
145	0x3eea8801	0.45806888
146	0xbf4fa8b3	-0.8111679
147	0x3dd59a4b	0.1042982
148	0x3f1aaac1	0.604168
149	0x3f14a59d	0.58065206
150	0x3f14b5e0	0.5809002
151	0x3ec9afc4	0.3939191
152	0x3e0253ba	0.12727252
153	0xbf721cb3	-0.9457504
154	0xbe8fb560	-0.28068066
155	0xbe3e19e7	-0.18564568
156	0x3ef0e2fa	0.4704817
157	0x3f1c8681	0.61142737
158	0x3fbb0fab	1.4614156
159	0x3fa5c359	1.295024
160	0x3e82bce8	0.2553475
161	0x3eafd1ca	0.34339744
162	0xbe721862	-0.23642114
163	0xbe809bea	-0.25118953
164	0xbe9d575a	-0.30730706
165	0x3e168a66	0.14701232
166	0xbddb58ec	-0.1071032
167	0x3f362867	0.711554
168	0xbf2a4cbf	-0.66523355
169	0xbd9a717c	-0.07541177
170	0x3dead2c3	0.11465981
171	0xbf450094	-0.7695401
172	0xbf161729	-0.5862909
173	0x3e8acad1	0.27107862
174	0xbe49fb73	-0.19724827
175	0x3e2d47fb	0.1692199
176	0x3e5fd558	0.21858728
177	0x3f218e26	0.63107526
178	0x3f0f37b3	0.55944365
179	0xbfd28ba5	-1.6448866
180	0x3f6659e0	0.8998089
181	0x3f810185	1.0078589
182	0x3e6ac88c	0.22928065
183	0xbed50ec5	-0.4161283
184	0x3f4f3942	0.80946743
185	0x3f7a9efa	0.9789883
186	0x3f831a27	1.0242356
187	0x3f8aa037	1.0830144
188	0xbe5e7046	-0.21722516
189	0xbfacd156	-1.3501384
190	0x3f027644	0.5096171
191	0xbf221ba0	-0.633234
192	0xbf222593	-0.63338584
193	0xbf22206d	-0.6333073
194	0xbec4d8b7	-0.3844659
195	0x3deca8a8	0.11555606
196	0x3f119403	0.5686647
197	0xbe92793c	-0.2860812
198	0x3e058f9a	0.13043061
199	0x3f64c28e	0.89359367
200	0x3f2f5e0d	0.68502885
201	0xbe7348da	-0.2375826
202	0xbef0a8e2	-0.47003847
203	0x3e752b44	0.23942286
204	0x3e9c9b70	0.3058734
205	0x3f148882	0.58020794
206	0x3ec3bfdf	0.38232324
207	0x3f76965f	0.963232
208	0x3e934e68	0.28770757
209	0x3ebd6c96	0.36996907
210	0x3ff4b633	1.9118103
211	0xbe8b5d3f	-0.2721958
212	0x3f474c96	0.77851236
213	0x3f341d93	0.70357627
214	0x3f50b89e	0.81531703
215	0x3e46c37e	0.19410512
216	0x3ebd5e5f	0.36986062
217	0xbdd5d641	-0.10441256
218	0x3f7ac8ea	0.9796282
219	0xbe978a5d	-0.2959775
220	0xbe8d9a98	-0.27657008
221	0xbdf7525c	-0.12076256
222	0xbe1d48cb	-0.153598
223	0x3ae88341	0.0017739312
224	0x3f5f3ece	0.8720521
225	0x3f080e1d	0.53146535
226	0xbdeb84bb	-0.11499926
227	0xbe884d8b	-0.2662166
228	0x3f8d23d9	1.1026565
229	0x3f98e0db	1.194362
230	0xbd1fc0b1	-0.039002124
231	0x3f1264f4	0.5718529
232	0x3ed937c6	0.42425364
233	0xbe068a95	-0.13138802
234	0xbd6cc915	-0.057808954
235	0x3efc32c2	0.49257475
236	0x3eac6b46	0.33675593
237	0xbde68088	-0.11254984
238	0xbe888a18	-0.26667857
239	0xbd09d1cc	-0.033647344
240	0x3f0eca27	0.5577721
241	0xbe7706d6	-0.24123701
242	0x3fbf9791	1.4968129
243	0xbd8954a6	-0.067055985
244	0x3e80844f	0.25100943
245	0x3f35f9c0	0.71084213
246	0x3ef3484b	0.47516093
247	0x3e75e96f	0.24014829
248	0x3f7162ee	0.9429158
249	0x3f6967fa	0.9117428
250	0x3f6a7082	0.91577923
251	0x3f1bda2b	0.6087977
252	0xbe44c193	-0.19214468
253	0xbceae44e	-0.028673317
254	0x3e985ee7	0.29759905
255	0xbd0886f0	-0.03333181

l1.bias f4 [8]
0	0x3f215039	0.63013035
1	0x3f459f5c	0.7719629
2	0x3f3a5101	0.7277985
3	0x3f21fbd1	0.63274866
4	0x3f0f3960	0.5594692
5	0x3f407e79	0.7519298
6	0x3f8d260a	1.1027234
7	0x3f75fc3a	0.9608799

l2.weight f4 [8, 8]
0	0xbeb7e42a	-0.35916263
1	0x3fca98b2	1.5827849
2	0x3fa018de	1.2507589
3	0xbfaf5f7a	-1.3701012
4	0x3f38c68a	0.72177947
5	0xbe6c5641	-0.23079778
6	0x3e8e459f	0.27787492
7	0x3f48e74e	0.7847794
8	0xbeff89ed	-0.49909917
9	0xbe531d6b	-0.20616691
10	0x3d85cfc7	0.06533771
11	0xbf026a2a	-0.50943244
12	0x3f8817da	1.0632279
13	0xbe7782cc	-0.24170989
14	0x3e1f21db	0.15540259
15	0x3f85ee37	1.0463322
16	0x3fb21860	1.3913689
17	0x3f3bfcdb	0.734327
18	0xbeec6127	-0.4616787
19	0xbf01e041	-0.5073281
20	0xbf4e4cf0	-0.8058615
21	0x3fcccc6f	1.5999888
22	0x3fa71fd9	1.3056594
23	0x3edbd8bc	0.42938793
24	0x3f11ae7d	0.56906873
25	0xbf3c4166	-0.7353729
26	0xbeea3c96	-0.45749348
27	0x3f809d1e	1.0047948
28	0x3f1710ee	0.5901021
29	0xbe07d2ff	-0.13264082
30	0xbf083562	-0.53206456
31	0x3eb3caea	0.3511575
32	0xbf0d7eff	-0.55271906
33	0x3ee0035e	0.4375257
34	0x3f86026e	1.0469491
35	0x3ffcc007	1.9746102
36	0xbdd843a9	-0.1055978
37	0xbf748ecc	-0.9553039
38	0x3fe9eca2	1.827534
39	0xbef90f5c	-0.4864453
40	0xbe997ecc	-0.2997955
41	0x3d3b0435	0.04565831
42	0x3e380149	0.1796924
43	0x3e17584e	0.1477978
44	0xbe9f157b	-0.31071076
45	0xbd8a2840	-0.06745958
46	0xbe862179	-0.26197413
47	0xbe2750a9	-0.16339363
48	0x3e4344aa	0.19069162
49	0xbeb40596	-0.35160512
50	0xbe9fe05a	-0.31225854
51	0xbe748ac5	-0.23881061
52	0xbe37b351	-0.17939498
53	0xbea2da24	-0.31807053
54	0xbd1f2658	-0.038854927
55	0x3d0e3770	0.034720838
56	0x3f8c0def	1.0941752
57	0xbfbd04cb	-1.4767088
58	0x3f825cce	1.0184572
59	0x3f5dc5fc	0.86630225
60	0x3e941306	0.28920764
61	0x3f6119a3	0.87929744
62	0xbf344678	-0.70420027
63	0x3f428bab	0.75994366

l2.bias f4 [8]
0	0x3eb8145e	0.3595304
1	0x3ed64149	0.41846684
2	0x3f7cd74d	0.9876602
3	0xbebf4b9b	-0.3736237
4	0x3f5f1003	0.87133807
5	0xbea1a058	-0.31567645
6	0xbeb178cf	-0.34662482
7	0x3e0ff585	0.14058502

l3.weight f4 [17, 8]
0	0xbfe3f0ed	-1.78079
1	0xbf80ad97	-1.0052975
2	0x3f42ff93	0.76171225
3	0xbff36f3c	-1.9018321
4	0xbee15cd9	-0.4401615
5	0x3dfac0bd	0.12243793
6	0xbeaeee8b	-0.3416637
7	0xbf590794	-0.8477719
8	0xbf790df3	-0.9728691
9	0xbefa670b	-0.4890674
10	0xbf162268	-0.5864625
11	0x3ef72024	0.4826671
12	0x3dd58bba	0.10427041
13	0xbe9dae78	-0.30797172
14	0xbd7a7cd0	-0.061154187
15	0x3e65df30	0.2244842
16	0xbe05df45	-0.13073452
17	0x3e4666b6	0.19375119
18	0xc008add9	-2.1356108
19	0x3f49f96f	0.7889623
20	0xbf853ad4	-1.0408578
21	0xbe4d003f	-0.20019625
22	0xbeb21b7e	-0.347866
23	0x3f13eac2	0.57780087
24	0x3f31ac44	0.6940348
25	0x3eee7cd2	0.46579605
26	0xc00aae36	-2.166883
27	0xbff69018	-1.9262724
28	0x3e07b14f	0.13251232
29	0x3dfd3a1a	0.123645976
30	0xbe4dad9f	-0.20085762
31	0xbe642d11	-0.22282816
32	0x3ee1dc67	0.44113466
33	0xbeced28a	-0.40395004
34	0xbf7aa001	-0.97900397
35	0xbf499ec8	-0.78757906
36	0xbe1c6d9d	-0.15276189
37	0x3e4c4671	0.19948746
38	0x3e44fe22	0.19237569
39	0x3ed3591a	0.41278917
40	0xbd936e3c	-0.0719876
41	0x3ebb9a42	0.36641127
42	0xc00bd55b	-2.1848972
43	0x3ebbc7ad	0.36675778
44	0x3e7b3ec7	0.24535666
45	0xbec5cc19	-0.38632277
46	0xbdbd79ac	-0.09251723
47	0xbe7fbdb2	-0.24974707
48	0x3dbf25c1	0.09333373
49	0x3ead7558	0.3387859
50	0xbf37f673	-0.71860427
51	0xbec0fc40	-0.3769245
52	0xbfebb883	-1.8415684
53	0xbe44db7c	-0.19224352
54	0xbd85f800	-0.06541443
55	0x3f0356ae	0.5130414
56	0x3e8a12b4	0.26967394
57	0x3e8b04ff	0.2715225
58	0xbf1faac3	-0.62369937
59	0x3ce5f161	0.0280692
60	0xbfea3de9	-1.8300143
61	0xbe2f189a	-0.17099229
62	0x3d5374d0	0.051625073
63	0x3e8a6396	0.27029103
64	0x3d1fb983	0.038995277
65	0xbf92537a	-1.1431725
66	0x3e65e8c4	0.22452074
67	0xbf967e60	-1.1757317
68	0x3e216cf1	0.15764214
69	0x3e3dbfb0	0.18530154
70	0xbe8cd1f4	-0.27503932
71	0xbf9f7f9f	-1.2460822
72	0xbf420d9b	-0.7580201
73	0xbc877065	-0.016533086
74	0x3eb45650	0.352221
75	0x3e0d725c	0.13813156
76	0xc00875df	-2.1321943
77	0xbea2ae43	-0.31773576
78	0xbe6fe7a6	-0.2342821
79	0x3da69ba6	0.08135156
80	0x3f3568bc	0.70862937
81	0xbf999ec6	-1.2001579
82	0xbfa34404	-1.2755132
83	0xbf8c9f19	-1.0986053
84	0x3ef20ff7	0.47277805
85	0xbe039162	-0.12848428
86	0xbe70bdd3	-0.23509912
87	0xbfa2d046	-1.271981
88	0xbf913946	-1.1345603
89	0xbf8099d2	-1.0046942
90	0xbec6200e	-0.3869633
91	0xc0081e18	-2.1268368
92	0x3f20c229	0.62796265
93	0xbdbcd2f6	-0.09219925
94	0xbe91a550	-0.28446436
95	0xbeda189d	-0.42596903
96	0x3e83e34b	0.25759348
97	0xbf9c7cec	-1.2225623
98	0x3f14ae2b	0.5807826
99	0xbfa5b438	-1.2945623
100	0xbf808479	-1.0040427
101	0x3e503fb9	0.20336808
102	0x3eacde5f	0.33763406
103	0xbfbfdb24	-1.4988751
104	0x3f3b68b5	0.73206645
105	0x3f4a6077	0.79053444
106	0xbe8bec67	-0.27328798
107	0xbfc2e0f0	-1.5224895
108	0xbe7b8a00	-0.24564362
109	0x3d9e4144	0.07727292
110	0x3e654942	0.22391227
111	0xbfb5718d	-1.4175278
112	0xbd2e367a	-0.04253242
113	0xbe697ff2	-0.22802714
114	0x3de44faa	0.11148007
115	0xc0132a8e	-2.2994723
116	0xbf1edb57	-0.62053436
117	0x3dde7dc9	0.10863835
118	0xbdc687c4	-0.09693864
119	0x3e9acfc5	0.3023664
120	0xbf8f4864	-1.1193967
121	0xbf2b2e7e	-0.66867816
122	0xbee90834	-0.4551407
123	0xc00383c0	-2.0549164
124	0x3f350c25	0.70721656
125	0x3e680576	0.22658333
126	0x3d27b760	0.040946364
127	0xbf10725e	-0.5642451
128	0xbff343f7	-1.9005116
129	0xbfa6e28e	-1.3037889
130	0x3ef9c69d	0.48784342
131	0xbf5efd96	-0.8710569
132	0x3ef44f55	0.47716776
133	0x3d86b395	0.06577221
134	0xbeb1a72f	-0.34697863
135	0xc0328304	-2.7892466

l3.bias f4 [17]
0	0xbe6e5d78	-0.23277843
1	0x3c90748a	0.017633695
2	0x3e1e16d7	0.154384
3	0xbeb7357a	-0.35782987
4	0xbe9e7b6e	-0.30953544
5	0x3d1b87f6	0.03797146
6	0x3c312b94	0.0108136125
7	0x3cd7ba13	0.026333844
8	0xbeffcf27	-0.49962732
9	0xbd2414ee	-0.040059023
10	0xbe7a2ba5	-0.24430712
11	0x3f25dcda	0.6479012
12	0x3e665280	0.22492409
13	0x3f14a36d	0.5806187
14	0x3e2b6f0e	0.16741583
15	0xba48b13b	-0.0007655804
16	0x3d0e7e5a	0.034788467
