data.pth (torch, 5695 bytes, 6 tensors)

l1.weight f4 [8, 57]
0	0xbe97e2d9	-0.2966526
1	0xbe9c6695	-0.30547014
2	0x3eacacd3	0.33725604
3	0x3ea49bbf	0.32150075
4	0x3e266086	0.16247758
5	0x3e80b8ef	0.25141093
6	0xbdd33e4c	-0.103146166
7	0xbe740cad	-0.2383296
8	0xbf8f087f	-1.1174468
9	0x3f61e8f1	0.88246065
10	0x3f1ddfc7	0.6166958
11	0x3e5a1315	0.21296342
12	0x3e3df880	0.18551826
13	0x3a585299	0.0008252054
14	0x3fadcacb	1.3577513
15	0x3f6849f1	0.90737826
16	0x3d4cad43	0.049969923
17	0x3e8e32f0	0.27773237
18	0xbf59638b	-0.84917516
19	0x3e75e954	0.24014789
20	0x3ec899e8	0.3917992
21	0x3e8be9f1	0.2732692
22	0x3eb12d95	0.3460509
23	0x3ea70e07	0.3262789
24	0x3eefa595	0.46806017
25	0x3f066533	0.5249817
26	0xbde692ca	-0.112584665
27	0x3ea1fa3e	0.31636232
28	0xbe966137	-0.29371044
29	0xbe7173fd	-0.23579402
30	0x3eb4dff8	0.35327125
31	0x3f3f687c	0.74768806
32	0x3f1f18f2	0.6214744
33	0x3e2ad1e7	0.16681634
34	0x3f2f262a	0.6841761
35	0xbde4355f	-0.11142992
36	0x3f48dd55	0.78462726
37	0xbf170439	-0.5899082
38	0x3eb1a65a	0.3469723
39	0xbe8fd942	-0.28095442
40	0xbeea11c5	-0.45716682
41	0x3db957a7	0.090499215
42	0x3f063199	0.5241943
43	0x3f1effec	0.62109256
44	0x3f90ea08	1.1321421
45	0xbef7b81b	-0.4838265
46	0x3e772023	0.24133353
47	0x3e2f5a14	0.17124206
48	0xbe8ee22e	-0.27906936
49	0xbe36971f	-0.17831086
50	0xbe916e30	-0.2840438
51	0x3ea3af90	0.3196988
52	0x3ee32cdf	0.4437017
53	0xbe2f095f	-0.17093419
54	0x3f20c1db	0.627958
55	0x3e23ea65	0.16007383
56	0x3ec8a385	0.39187256
57	0xbe77095e	-0.24124667
58	0xbea805c3	-0.32816896
59	0x3f047071	0.5173407
60	0x3e179ac5	0.14805134
61	0xbd16bb58	-0.03679976
62	0x3eadf17f	0.3397331
63	0xbe6f22c3	-0.23353104
64	0xbe17f20d	-0.14838429
65	0xbf93618d	-1.1514145
66	0x3f15ddc4	0.5854151
67	0x3edde138	0.4333589
68	0x3ee54b03	0.44783792
69	0x3e2a6c0b	0.16642778
70	0xbe8bb161	-0.27283767
71	0x3f997b04	1.1990666
72	0x3f257fcb	0.6464812
73	0x3e9a045e	0.30081457
74	0x3e25cff4	0.16192609
75	0xbf5233a5	-0.82110053
76	0x3ea7f568	0.32804418
77	0x3cd131b2	0.025536392
78	0x3d06da7e	0.032923214
79	0x3d892547	0.06696563
80	0x3d2fddfb	0.042936306
81	0x3f1d5f38	0.6147342
82	0x3f024b32	0.5089599
83	0xbd5745f1	-0.052556936
84	0x3f068eb9	0.5256153
85	0xbe673869	-0.22580113
86	0xbe0c1a63	-0.1368194
87	0x3f08ee4c	0.5348861
88	0x3f085ade	0.5326365
89	0x3f435bab	0.7631175
90	0x3eef215f	0.46705148
91	0x3f2b1150	0.6682329
92	0xbeade981	-0.33967212
93	0x3f141742	0.5784799
94	0xbeed0c49	-0.46298435
95	0x3ea96b46	0.33089656
96	0xbeb54a8e	-0.35408443
97	0xbe8a5adf	-0.27022454
98	0xbe9fd613	-0.31218013
99	0x3eb39528	0.35074735
100	0x3eab6208	0.3347323
101	0x3f928e59	1.1449691
102	0xbe9d54bc	-0.3072871
103	0x3e1bdcb8	0.15220916
104	0x3e9ab56a	0.30216533
105	0xbec091f0	-0.3761134
106	0xbe54686a	-0.20742956
107	0xbeaac7eb	-0.3335565
108	0x3e569380	0.20954704
109	0x3e80549e	0.25064558
110	0xbe974584	-0.29545224
111	0x3ef6e3ad	0.48220578
112	0x3edbe508	0.42948174
113	0x3ea3719f	0.31922624
114	0x3e8e980a	0.27850372
115	0x3e916326	0.28395957
116	0x3eaeeade	0.34163564
117	0x3d1ef184	0.038804546
118	0xbe2fc56f	-0.17165159
119	0x3ea09532	0.31363827
120	0xbdd0c976	-0.101946756
121	0xbe1f4c13	-0.15556364
122	0x3ec00bcd	0.37509003
123	0x3f582f56	0.8444723
124	0x3f880c7a	1.0628808
125	0x3e4adcab	0.1981074
126	0xbdb31c00	-0.08745575
127	0xbdc84b36	-0.0977997
128	0x3f0dc49b	0.5537812
129	0x3f757c9e	0.95893276
130	0x3d044010	0.032287657
131	0x3d584744	0.05280234
132	0xbf1271d8	-0.5720496
133	0x3e8dc2b4	0.2768761
134	0xbe161675	-0.14657004
135	0xbdf782c2	-0.12085487
136	0xbe594ced	-0.21220751
137	0xbe5101f0	-0.20410895
138	0x3e8a92f4	0.2706524
139	0x3f2a06a5	0.6641639
140	0x3df7b082	0.12094213
141	0x3eacdd38	0.33762527
142	0xbe16479f	-0.14675759
143	0xbc85bed8	-0.016326353
144	0x3ec83374	0.39101756
145	0xbd91b5d5	-0.0711476
146	0x3f3c1be2	0.73480046
147	0x3e763d6d	0.2404687
148	0xbd06a9a0	-0.03287661
149	0xbe45fdf7	-0.19335161
150	0x3f93f5e0	1.155941
151	0xbc7ba0c2	-0.015358152
152	0x3e611497	0.2198051
153	0xbf4e9d99	-0.80709225
154	0xbc7ef2d9	-0.015560829
155	0xbcf8a07c	-0.030349962
156	0x3f60c78d	0.8780449
157	0x3f7f744b	0.99786824
158	0x3f9679c6	1.1755912
159	0xbec02fd1	-0.3753648
160	0xbe176fd0	-0.14788747
161	0x3d19649f	0.037449475
162	0xbc50ae50	-0.012736872
163	0x3e6f1730	0.23348689
164	0x3edbeeee	0.42955726
165	0x3d4754bb	0.04866479
166	0x3dcae963	0.09907796
167	0xbe1a5d36	-0.1507462
168	0x3f0346d0	0.51279926
169	0x3ea75cd8	0.32688022
170	0x3e4ea97e	0.20181844
171	0x3f741550	0.9534502
172	0x3f863f2d	1.048803
173	0xbce77198	-0.028252408
174	0xbe65c72e	-0.22439262
175	0xbe8ff229	-0.2811444
176	0xbdcd69c4	-0.10029939
177	0x3eaded0c	0.33969915
178	0xbdfc1132	-0.12307967
179	0x3f0468dc	0.517225
180	0xbebc0cb9	-0.36728457
181	0xbe73b05a	-0.23797742
182	0xbdfbcbc0	-0.122947216
183	0xbe244ad7	-0.16044174
184	0x3eeeee45	0.4666616
185	0x3fc3c79b	1.529529
186	0xbf226288	-0.63431597
187	0x3ec59173	0.3858753
188	0xbe946f4a	-0.28991157
189	0x3e25b5c5	0.16182621
190	0x3c5227b6	0.012826851
191	0xbee5b487	-0.44864294
192	0xbf1d1f50	-0.61375904
193	0xbf068bd4	-0.5255711
194	0xbdc077e1	-0.09397865
195	0xbe4994e1	-0.19685699
196	0xbe1601ba	-0.14649096
197	0x3ed69a72	0.41914707
198	0xbd9c1628	-0.076214135
199	0xbe5064d3	-0.20350961
200	0xbec14fde	-0.37756246
201	0x3f3549ce	0.7081574
202	0x3f703c13	0.93841666
203	0x3f7eff8c	0.99608684
204	0x3d862017	0.065490894
205	0x3f42c743	0.760853
206	0xbd86ff66	-0.06591682
207	0xbec7254c	-0.38895643
208	0x3f5b72f4	0.8572228
209	0xbdec60ea	-0.115419224
210	0x3f887b30	1.0662594
211	0x3f4b2b03	0.79362506
212	0x3e9c8aa4	0.30574524
213	0xbdb0e7e1	-0.086379774
214	0xbdd0684e	-0.101761445
215	0xbf7ad5eb	-0.9798266
216	0xbf3eeb51	-0.74577814
217	0x39818f26	0.0002471145
218	0x3e41527f	0.18879126
219	0x3f3ebaaa	0.74503577
220	0x3f393581	0.72347265
221	0x3f1eca6f	0.6202764
222	0xbe4f7987	-0.20261203
223	0xbc62695a	-0.013819063
224	0xbe750ee1	-0.23931457
225	0xbe2d23c4	-0.16908175
226	0x3f1a816c	0.6035373
227	0xbd076215	-0.033052523
228	0xbdf2de8f	-0.11858856
229	0xbe053fe8	-0.1301266
230	0xbe3805de	-0.17970988
231	0x3f1db3e0	0.6160259
232	0x3e3faf00	0.18719101
233	0xbe808fa1	-0.2510958
234	0x3f810603	1.007996
235	0x3ef3df29	0.47631195
236	0xbf7370d5	-0.95094043
237	0x3ecfa910	0.40558672
238	0xbec95060	-0.39319134
239	0xbe3fe6e9	-0.18740429
240	0x3f25767d	0.64633924
241	0x3f882fcd	1.0639588
242	0x3eb9664a	0.36210853
243	0x3ed457da	0.41473275
244	0xbdd77734	-0.10520783
245	0x3f089136	0.53346574
246	0x3f56ab4c	0.8385513
247	0xbe1a778c	-0.15084666
248	0x3f238345	0.63872176
249	0x3f3b231d	0.73100454
250	0x3f1a0667	0.6016602
251	0x3f0c5cb8	0.5482898
252	0xbe35548c	-0.17708033
253	0x3ed3191b	0.4123009
254	0x3e822b59	0.25423697
255	0xbe629c0a	-0.22129837

l1.bias f4 [8]
0	0x3f4f02ef	0.8086385
1	0x3f50ff74	0.8163979
2	0x3e53f852	0.20700195
3	0x3f3659be	0.71230686
4	0x3f8d2337	1.1026372
5	0x3efe829c	0.49709022
6	0x3f88dc29	1.0692188
7	0x3f53768b	0.8260276

l2.weight f4 [8, 8]
0	0x3fb6b516	1.4274013
1	0x3fb66cba	1.4251931
2	0x3f7ea408	0.9946904
3	0xbf05ae7c	-0.5221937
4	0xbe885cd3	-0.2663332
5	0xbcdce612	-0.026965175
6	0x3e551fc3	0.20812897
7	0x3e261398	0.16218412
8	0xbbfbeefe	-0.007688402
9	0xbf1191ef	-0.568633
10	0xbf4f9616	-0.8108839
11	0x3ef18f1e	0.47179502
12	0x3f7fdf27	0.9994988
13	0xbf30e678	-0.6910167
14	0x3f1a7973	0.60341567
15	0x3f9ad79e	1.2097051
16	0x3f29c86a	0.6632143
17	0x3f5bcc26	0.8585838
18	0x3e69ee75	0.2284487
19	0x3f9b4397	1.2130002
20	0x3d2fd7f2	0.04293055
21	0xbf8c38f4	-1.0954881
22	0xbf00f486	-0.50373113
23	0x3e2b8f9a	0.16753998
24	0xbf127aff	-0.5721893
25	0xbce84d93	-0.028357303
26	0xbda84bc1	-0.08217574
27	0x3f964ad3	1.1741585
28	0xbed2282d	-0.41046277
29	0x3faa2339	1.3291999
30	0xbf095587	-0.5364613
31	0x3f8bbde4	1.0917325
32	0xbe3cc304	-0.18433768
33	0x3e0d134b	0.13776891
34	0xbf96c34d	-1.1778351
35	0xbe882356	-0.2658946
36	0x3f224385	0.63384277
37	0xbd6522df	-0.05594146
38	0x3fdb57e2	1.7136195
39	0x3fbe26a7	1.4855546
40	0xbcfd994d	-0.030956889
41	0x3f1cb8dd	0.6121958
42	0x3f4b516f	0.7942113
43	0xbfa0c2cf	-1.2559451
44	0xbe622a91	-0.2208655
45	0xbf23b856	-0.6395315
46	0x3f9a796d	1.2068306
47	0x3f94d0fd	1.1626278
48	0x3f3305c6	0.69930685
49	0x3f3e57a4	0.7435248
50	0xbf4d66ce	-0.8023499
51	0x3f7e8093	0.9941494
52	0x3fbddfde	1.4833944
53	0xbeff3df2	-0.49851948
54	0xbe4d568e	-0.20052549
55	0xbea9dd89	-0.3317683
56	0x3f502e72	0.8132087
57	0x3f8456d2	1.0338995
58	0x3e3d2978	0.1847285
59	0x3e27aef4	0.16375333
60	0xbf2edc6b	-0.6830508
61	0x3f3a3196	0.7273191
62	0x3eaa174d	0.33220902
63	0xbeae75e9	-0.34074333

l2.bias f4 [8]
0	0x3ee9a641	0.45634654
1	0x3f045012	0.5168468
2	0xbe8a0587	-0.26957342
3	0x3efd3e11	0.49461415
4	0x3f3db10c	0.7409828
5	0x3e903efc	0.28173053
6	0x3f05e75a	0.5230614
7	0x3ef484cf	0.47757575

l3.weight f4 [17, 8]
0	0x3db7f113	0.08981528
1	0xbf46cff8	-0.77661085
2	0x3f5586be	0.83408725
3	0xbf4a766d	-0.79086953
4	0xbd98a85f	-0.07453989
5	0x3e96c0cb	0.29443964
6	0xbf3c6bc0	-0.73601913
7	0xbeddbe11	-0.43309072
8	0x3ebfd414	0.3746649
9	0xbf862858	-1.0481062
10	0xc002d2c9	-2.0441153
11	0xbf24530d	-0.64189225
12	0x3f38f1a5	0.7224372
13	0xbfba3ab1	-1.4549161
14	0xbd81915f	-0.063265555
15	0x3edfef8e	0.43737453
16	0xbded9d31	-0.116022475
17	0xbfae0dc0	-1.3597946
18	0x3ef7a3f9	0.4836729
19	0xbe97575a	-0.2955883
20	0xbf8f6232	-1.1201842
21	0xbf666bbf	-0.9000816
22	0xbe3c189f	-0.18368767
23	0x3ebf9a9a	0.3742264
24	0xbf85d712	-1.0456259
25	0x3df3a544	0.11896756
26	0xbfbec46b	-1.4903692
27	0x3e0caaea	0.13737074
28	0x3f1e564f	0.61850446
29	0xbf74ac75	-0.9557565
30	0xbf5345a8	-0.8252816
31	0xbf021bbd	-0.50823575
32	0x3ef42f5c	0.47692382
33	0xbf8a974e	-1.0827425
34	0xbfc4bd5e	-1.537029
35	0x3da13e1b	0.07873174
36	0xbfa52ca1	-1.2904245
37	0xbfb30f7a	-1.3989098
38	0xbfaeef9f	-1.3666877
39	0x3eb2cf47	0.34923765
40	0xbf9cdb1b	-1.2254366
41	0xbfc06a96	-1.5032527
42	0xbff2647c	-1.8936915
43	0x3d91add3	0.071132325
44	0xbf884ea7	-1.0649003
45	0xbf51f229	-0.8201013
46	0x3e31648b	0.1732351
47	0x3ecac155	0.39600626
48	0xbf912c3a	-1.1341622
49	0xbf9ac833	-1.2092346
50	0xbf0f525e	-0.5598506
51	0x3efd44d9	0.4946659
52	0xbf0f3057	-0.55933136
53	0xbe8c12e3	-0.2735816
54	0xc00bac7d	-2.1824028
55	0x3e343b43	0.17600732
56	0xbf923b0d	-1.1424271
57	0xbfa45a88	-1.2840128
58	0xbf18fa7e	-0.5975722
59	0x3efcdc79	0.49386957
60	0xbf0d5295	-0.55204135
61	0xbf3e6023	-0.74365443
62	0xc00bf997	-2.1871088
63	0x3e704b49	0.23466219
64	0x3c329e92	0.010902064
65	0xbe51871a	-0.20461693
66	0xbfc96316	-1.5733364
67	0xbf0b8c65	-0.545111
68	0x3ed41756	0.41424054
69	0x3e628e97	0.22124706
70	0xbfe78599	-1.8087646
71	0xbda02ddb	-0.07821246
72	0x3eddb3f3	0.43301353
73	0xbec9282f	-0.3928847
74	0x3eb69a7e	0.35664743
75	0xbfb904c3	-1.4454578
76	0xbfa9a17a	-1.3252404
77	0xbf74be9e	-0.9560336
78	0x3ef3aa97	0.47591087
79	0xbe537edf	-0.20653866
80	0xbf5ebd4c	-0.87007594
81	0x3ec5fa66	0.386676
82	0xbf8e47e6	-1.1115692
83	0xbe223a29	-0.15842499
84	0x3f2136a0	0.62973976
85	0x3eb67b34	0.35640872
86	0xbfe10534	-1.7579713
87	0xbfad0f85	-1.3520361
88	0x3f168569	0.5879732
89	0xbf4d9dcc	-0.80318904
90	0xbf1f4313	-0.6221172
91	0xbf61b302	-0.8816377
92	0xbf7a90a5	-0.9787696
93	0x3de22846	0.11042838
94	0xbfa64289	-1.2989055
95	0x3e1e20eb	0.15442245
96	0xbf9b394e	-1.2126863
97	0x3e5b0ed1	0.21392371
98	0x3f1c9e89	0.61179405
99	0xbded2901	-0.115800865
100	0xbe882329	-0.26589325
101	0xbf7a4aae	-0.977702
102	0x3e258bb0	0.16166568
103	0xbfb00e10	-1.3754292
104	0x3e259152	0.16168717
105	0x3ec9cbbf	0.39413258
106	0xbf44543f	-0.7669105
107	0xbff7d2c9	-1.9361202
108	0x3ef29013	0.47375545
109	0xbd2790d4	-0.040909603
110	0xbdd6ffa6	-0.1049798
111	0xbf7e22de	-0.99271953
112	0x3e6ce135	0.23132785
113	0x3d504565	0.05084743
114	0x3e5e7040	0.21722507
115	0xbf5b3160	-0.85622215
116	0xbbacee23	-0.0052774115
117	0xbfe0cc1c	-1.7562289
118	0x3d8a98a4	0.06767395
119	0xbb7c1627	-0.0038465352
120	0x3ebd2156	0.36939496
121	0xbfa34d56	-1.2757976
122	0xbef18865	-0.47174373
123	0xbf6426c6	-0.89121664
124	0xbf805967	-1.0027283
125	0x3e57aa03	0.21060948
126	0xbfa8f5bf	-1.3199996
127	0x3edc9274	0.43080485
128	0xbfb5e9ac	-1.4211936
129	0x3f18aee5	0.5964187
130	0xbf0bf80a	-0.5467535
131	0xbfc3a77a	-1.5285485
132	0x3efbc3d0	0.4917283
133	0xbff6b04e	-1.9272554
134	0x3f354fc5	0.70824844
135	0xbf97c783	-1.1857761

l3.bias f4 [17]
0	0xbefed7bf	-0.49773976
1	0xbe769431	-0.24079968
2	0xbed3df5b	-0.41381344
3	0x3e878406	0.26467913
4	0x3e2289e0	0.15872908
5	0x3c4eabf3	0.012614238
6	0x3e97b19e	0.296277
7	0xbcd169a8	-0.025563076
8	0x3d896ab5	0.06709806
9	0x3e1356b0	0.14388537
10	0xbeb763a9	-0.35818222
11	0x3e3a9bff	0.1822357
12	0xbda75263	-0.08170011
13	0x3f1d6422	0.61480916
14	0xbe60d5eb	-0.21956603
15	0xbe49d35d	-0.19709535
16	0xbde70adb	-0.112813674
